assets/diabetes_prediction_model.tflite (tflite, 3208 bytes, 5 tensors)

arith.constant f4 [1, 8]
0.7909896 -0.47782275 -0.6735271 0.72892356 0.3571633 -0.5787504 0.57004815 -0.07916119
00000000: 4b7e 4a3f 2fa5 f4be 466c 2cbf bc9a 3a3f
00000010: 1cde b63e fc28 14bf adee 113f 431f a2bd

arith.constant1 f4 [8, 16]
-0.33993554 -0.18339226 0.13514982 0.25050884 0.20502372 0.061451025 -0.3809553 0.022382539
0.34147733 -0.056497898 0.50762415 -0.14266539 0.28356135 0.06439565 0.106851235 -0.57206446
-0.31113714 -0.37784833 -0.044986665 0.382053 -0.1514729 -0.02519518 0.59482527 -0.102702856
-0.20547424 -0.16980417 0.3123074 -0.36601806 0.19313538 0.668507 -0.31179976 0.5197947
-0.2744525 0.38623402 -0.42464912 0.32251042 0.53980184 0.29207334 0.17832386 0.20668763
0.60212153 0.38501313 -0.13454863 -0.16936493 -0.25031894 -0.20383163 0.1019691 0.095292225
-0.020821044 0.56093633 0.29361612 0.0339037 -0.5009325 0.3858377 0.086477116 0.21935393
0.19545925 0.33568463 -0.34813386 -0.24382026 -0.37691185 0.1993583 -0.4983712 -0.4034907
0.072635755 -0.061695 0.1609749 -0.47406337 -0.20679483 -0.07324307 -0.47837877 0.4541101
0.12638082 0.15401536 -0.43573275 -0.30124262 0.10942734 -0.009971651 0.46758357 0.044072703
0.0827096 -0.14297509 0.23016164 0.36294195 0.027925184 0.18983835 0.65417063 -0.18514255
0.51542705 -0.40749192 -0.3493508 -0.015249352 0.4831533 0.75661683 0.4903161 0.058096386
0.7255601 -0.09180726 0.53726363 0.25630206 0.020499477 0.27168605 0.25519174 0.48263767
-0.2486398 -0.15422551 -0.31069362 -0.10720035 -0.044853035 -0.76752126 -0.23779091 -0.41169238
-0.4636679 -0.044924643 0.31377187 -0.07641718 0.35761118 -0.4177566 0.013215302 0.45580196
-0.29761806 0.20086662 0.036696583 0.52454287 0.38854498 0.26129574 0.37940404 0.43214357
00000000: 080c aebe 2ecb 3bbe b764 0a3e b242 803e
00000010: bdf1 513e 12b4 7b3d 930c c3be 965b b73c
00000020: 1ed6 ae3e 576a 67bd a8f3 013f e016 12be
00000030: f42e 913e dee1 833d d2d4 da3d d172 12bf
00000040: 5e4d 9fbe 5675 c1be f043 38bd 739c c33e
00000050: b61b 1bbe 1f66 cebc 7846 183f e055 d2bd
00000060: d767 52be 25e1 2dbe c1e6 9f3e b866 bbbe
00000070: 48c5 453e 4623 2b3f 38a4 9fbe 4411 053f
00000080: 0a85 8cbe 77c0 c53e 9c6b d9be 1620 a53e
00000090: 7430 0a3f a38a 953e 889a 363e eca5 533e
000000a0: a324 1a3f 7120 c53e 1ec7 09be 006e 2dbe
000000b0: ce29 80be 3db9 50be 2dd5 d03d 9228 c33d
000000c0: e590 aabc 8699 0f3f da54 963e 9bde 0a3d
000000d0: 1d3d 00bf 858c c53e ea1a b13d 519e 603e
000000e0: 7826 483e dbde ab3e 9a3e b2be 05ac 79be
000000f0: 97fa c0be 9524 4c3e 832a ffbe 5596 cebe
00000100: 0ec2 943d e5b3 7cbd 9bd6 243e 6fb8 f2be
00000110: 06c2 53be 7600 96bd 10ee f4be 1e81 e83e
00000120: f969 013e 34b6 1d3e 5d18 dfbe 793c 9abe
00000130: 711b e03d 2360 23bc 1d67 ef3e 9485 343d
00000140: a763 a93d 1068 12be 7eaf 6b3e 87d3 b93e
00000150: 5bc3 e43c fc64 423e ba77 273f 0296 3dbe
00000160: 07f3 033f c8a2 d0be 1cde b2be 6bd8 79bc
00000170: df5f f73e a4b1 413f b60a fb3e 7af6 6d3d
00000180: 4fbe 393f 7205 bcbd 1c8a 093f 063a 833e
00000190: 85ee a73c 6f1a 8b3e 7ea8 823e 491c f73e
000001a0: 6f9b 7ebe 4bed 1dbe 3c13 9fbe db8b dbbd
000001b0: d1b7 37bd 467c 44bf 767f 73be 58c9 d2be
000001c0: e165 edbe e702 38bd b5a6 a03e 9c80 9cbd
000001d0: d018 b73e 31e4 d5be fe84 583c e05e e93e
000001e0: 6561 98be fbaf 4d3e 284f 163d 7148 063f
000001f0: 5eef c63e 8ec8 853e 3f41 c23e ec41 dd3e

sequential_1/dense_1_2/Add/ReadVariableOp f4 [8]
-0.07813525 0.17386663 0.071687676 0.049669124 0.032349147 0.13862371 0.20742482 -0.017659763
00000000: 6005 a0bd 180a 323e fdd0 923d da71 4b3d
00000010: 8a80 043d 60f3 0d3e 2c67 543e 35ab 90bc

sequential_1/dense_1/Add/ReadVariableOp f4 [16]
0.2072488 -0.034744658 0.08160519 0.14102603 -0.06245804 0.07708298 0.2227953 0.050743744
0.19439761 -0.09013768 -0.0075346865 -0.07028817 -0.031119516 0.2653931 0.052201107 0.059145667
00000000: 0839 543e 6a50 0ebd 9f20 a73d 2169 103e
00000010: 00d4 7fbd aedd 9d3d 7324 643e acd8 4f3d
00000020: 2b10 473e 1b9a b8bd 88e5 f6bb 3ef3 8fbd
00000030: 5bee febc 9be1 873e d4d0 553d ba42 723d

sequential_1/dense_1/MatMul f4 [16, 8]
-0.7573684 0.54145676 -0.49081498 -0.5298023 -0.027092792 0.24498978 0.36249152 -0.27237868
-0.3198902 -0.3730116 0.48591608 0.38173056 -0.37489128 0.13851213 0.38061014 0.51048946
0.17795844 0.29189044 0.21828368 0.55688244 0.35355142 0.5597404 0.50423175 0.24142168
-0.39797744 -0.43258134 -0.09029349 -0.20807314 0.32952127 0.028559452 0.21726601 -0.25864062
0.29628202 -0.106644034 0.30832735 0.17186788 -0.084011324 -0.22397986 -0.34724876 0.11560092
0.44098777 -0.49664328 -0.41388753 -0.13675465 0.41011837 0.04678217 -0.2147825 0.048564173
-0.48718828 -0.40267533 -0.22636566 -0.08748533 0.45030725 -0.22517273 -0.33454105 -0.48426378
0.2875015 0.59495085 0.20502962 -0.42604372 0.17686182 0.46043336 -0.4118065 -0.022634184
0.11661485 -0.53527194 0.36110696 0.35745463 0.20800132 0.14696366 -0.61130136 0.16660064
-0.18317182 0.4828575 -0.29384574 0.27773252 0.12412186 -0.21854764 0.22058927 -0.2833625
0.58704937 -0.102369614 -0.2721096 0.15823613 0.23309754 0.32963985 0.3068515 -0.34569287
0.30492836 -0.42729545 0.3086702 0.31521454 0.13023561 -0.09935686 0.062046602 0.42553133
-0.4484213 -0.6791086 -0.20360069 0.07089126 -0.28125688 -0.22912997 0.26961246 -0.13166377
0.051983226 -0.5188203 0.2689445 -0.32083803 0.14547691 -0.7146443 -0.26598576 -0.72543174
0.17275372 -0.25822982 0.014925188 -0.30080724 0.19309741 -0.5998281 0.19596776 -0.29122844
-0.18240795 -0.0062200977 0.4190406 -0.09590412 0.21054271 0.29078805 0.36641014 -0.66317236
00000000: e5e2 41bf e99c 0a3f 1a4c fbbe 20a1 07bf
00000010: b4f1 ddbc 9ade 7a3e 7d98 b93e 3875 8bbe
00000020: a6c8 a3be 60fb bebe fec9 f83e 3072 c33e
00000030: c0f1 bfbe 20d6 0d3e 55df c23e 70af 023f
00000040: bd3a 363e aa72 953e c285 5f3e d98f 0e3f
00000050: b104 b53e 264b 0f3f 5515 013f 3f37 773e
00000060: b3c3 cbbe 4d7b ddbe cbeb b8bd 2011 55be
00000070: 03b7 a83e 83f5 e93c fb7a 5e3e 8b6c 84be
00000080: 47b2 973e 3068 dabd 15dd 9d3e 22fe 2f3e
00000090: 210e acbd fa5a 65be 97ca b1be 2dc0 ec3d
000000a0: 26c9 e13e 0748 febe 11e9 d3be 6909 0cbe
000000b0: 09fb d13e a99e 3f3d f2ef 5bbe 3aeb 463d
000000c0: be70 f9be 762b cebe 66cc 67be 822b b3bd
000000d0: ac8e e63e ae93 66be f748 abbe 6cf1 f7be
000000e0: 6633 933e b34e 183f 49f3 513e 6722 dabe
000000f0: 441b 353e ecbd eb3e 4dd8 d2be 536b b9bc
00000100: c4d3 ee3d 9507 09bf 03e3 b83e 4b04 b73e
00000110: 4cfe 543e a47d 163e 3f7e 1cbf 5c99 2a3e
00000120: 6591 3bbe 1939 f73e f372 96be f532 8e3e
00000130: 9a33 fe3d f4ca 5fbe 27e2 613e e414 91be
00000140: de48 163f 29a7 d1bd f351 8bbe a708 223e
00000150: 1fb1 6e3e 8ec6 a83e a41b 9d3e a8fe b0be
00000160: 921f 9c3e 78c6 dabe 050a 9e3e cd63 a13e
00000170: 7c5c 053e 9c7b cbbd 9424 7e3d 3edf d93e
00000180: 7a97 e5be 10da 2dbf b37c 50be 702f 913d
00000190: e700 90be 0ca1 6abe a50a 8a3e ded2 06be
000001a0: 5dec 543d 68d1 04bf 18b3 893e e244 a4be
000001b0: e6f7 143e eef2 36bf 492f 88be e5b5 39bf
000001c0: 5ae6 303e b336 84be c788 743c 6803 9abe
000001d0: 54bb 453e 568e 19bf c6ab 483e e51b 95be
000001e0: 26c9 3abe f6d1 cbbb 7d8c d63e 6169 c4bd
000001f0: 8298 573e 2ce2 943e 1c9a bb3e aac5 29bf
